model_training/model.state_dict_classification.pth (torch, 2512 bytes, 4 tensors)

lin1.weight f4 [6, 4]
00000000: 9c73 b7be 5cbf f73e 7c79 e3be e020 e43d
00000010: c888 5ebe 70bf cbbd 9001 27be b8a4 b23e
00000020: 3877 c2bd 20b5 b2bd e446 43be e097 f0bd
00000030: 5e76 8c3e 749a 133e b06b b93d b4d2 3f3e
00000040: e8ff dd3e 703e 213d 4263 e4be 1c4d e03e
00000050: 14f5 063e 6049 84bd 6068 f2bc 948c f3be
-0.3583039 0.48388183 -0.44428623 0.11139083 -0.21731865 -0.09948623 -0.1630919 0.34891295
-0.094953954 -0.08725953 -0.19070011 -0.11747718 0.27434057 0.14414388 0.09053743 0.1873272
0.43359303 0.039366186 -0.44606978 0.4380883 0.13179427 -0.06459308 -0.029590786 -0.4756819

lin1.bias f4 [6]
00000000: 80d8 2abe e88d 963e a89b 02be e036 1bbe
00000010: 8017 b5bb 409d 7e3c
-0.1668415 0.2940514 -0.1275469 -0.15157652 -0.005526483 0.015540421

lin2.weight f4 [3, 6]
00000000: a814 74bd f070 a13c a03c c93c 8830 1d3d
00000010: dce3 9ebe 3c91 1d3e bcfb 9bbe a8c5 1fbe
00000020: fc97 9d3e 80fe 0b3b 8f68 babe e0e9 ca3d
00000030: 624e 9c3e 2215 07be b491 443e 4423 b83e
00000040: a07f b33e 64d9 793e
-0.05959001 0.019707173 0.024565041 0.03837636 -0.31033218 0.15387434 -0.30465496 -0.15602744
0.30780017 0.002136141 -0.36407897 0.09907889 0.3052855 -0.13191655 0.19196206 0.35964406
0.35058308 0.24399334

lin2.bias f4 [3]
00000000: 143c 353e 9400 b13e aa75 c13e
0.17698699 0.34570754 0.37785083
